…
['STFIPS', 'EDUC', 'MARSTAT', 'SERVICES', 'DETCRIM', 'PSOURCE', 'NOPRIOR', 'ARRESTS', 'EMPLOY', 'METHUSE', 'PSYPROB', 'PREG', 'GENDER', 'VET', 'LIVARAG', 'DAYWAIT', 'SERVICES_D', 'EMPLOY_D', 'LIVARAG_D', 'ARRESTS_D', 'DSMCRIT', 'AGE', 'RACE', 'ETHNIC', 'DETNLF', 'DETNLF_D', 'PRIMINC', 'SUB1', 'SUB2', 'SUB3', 'SUB1_D', 'SUB2_D', 'SUB3_D', 'ROUTE1', 'ROUTE2', 'ROUTE3', 'FREQ1', 'FREQ2', 'FREQ3', 'FREQ1_D', 'FREQ2_D', 'FREQ3_D', 'FRSTUSE1', 'FRSTUSE2', 'FRSTUSE3', 'HLTHINS', 'PRIMPAY', 'FREQ_ATND_SELF_HELP', 'FREQ_ATND_SELF_HELP_D', 'ALCFLG', 'COKEFLG', 'MARFLG', 'HERFLG', 'METHFLG', 'OPSYNFLG', 'PCPFLG', 'HALLFLG', 'MTHAMFLG', 'AMPHFLG', 'STIMFLG', 'BENZFLG', 'TRNQFLG', 'BARBFLG', 'SEDHPFLG', 'INHFLG', 'OTCFLG', 'OTHERFLG', 'DIVISION', 'REGION', 'IDU', 'ALCDRUG', 'CBSA2020']
CTMPGIN(
  (entity_embedding_layer): EntityEmbeddingBatch3(
    (embedding_layer): Embedding(1215, 32)
  )
  (embed_los): EntityEmbeddingBatch3(
    (embedding_layer): Embedding(38, 8)
  )
  (gin_1): ModuleList(
    (0-1): 2 x GINConv(nn=Sequential(
      (0): Linear(in_features=32, out_features=32, bias=True)
      (1): LayerNorm((32,), eps=1e-05, elementwise_affine=True)
      (2): ReLU()
      (3): Linear(in_features=32, out_features=32, bias=True)
    ))
  )
  (gin_2): ModuleList(
    (0-1): 2 x GINEConv(nn=Sequential(
      (0): Linear(in_features=32, out_features=32, bias=True)
      (1): LayerNorm((32,), eps=1e-05, elementwise_affine=True)
      (2): ReLU()
      (3): Linear(in_features=32, out_features=32, bias=True)
    ))
  )
  (proj_ad): Linear(in_features=32, out_features=32, bias=True)
  (proj_dis): Linear(in_features=32, out_features=32, bias=True)
  (proj_merged): Linear(in_features=32, out_features=32, bias=True)
  (gated_fusion): GatedFusion(
    (score): Sequential(
      (0): Linear(in_features=96, out_features=96, bias=True)
      (1): ReLU()
      (2): Dropout(p=0.3, inplace=False)
      (3): Linear(in_features=96, out_features=3, bias=True)
    )
    (dropout): Dropout(p=0.3, inplace=False)
  )
  (classifier_b): Sequential(
    (0): Linear(in_features=32, out_features=64, bias=True)
    (1): ReLU()
    (2): Dropout(p=0.3, inplace=False)
    (3): Linear(in_features=64, out_features=1, bias=True)
  )
)
학습 가능한 파라미터 개수: 63,416
Buliding Mutual Information based edge index
Loading Cached file...

--------------------Interpreting Models with Integrated Gradients--------------------
Seed set to 0
IG (dataset): 100%|█████████████████████████████████████████████████████████████████████████████████████████████████████████████████████████████████| 30496/30496 [9:39:53<00:00,  1.14s/it]
…
