(pyg_2) jeong-yunseong@jeong-yunseong-ui-MacBookPro Phase_2_public %  cd /Users/jeong-yunseong/Documents/programming/Phase_2_public ; /usr/bin/env /opt/miniconda3/envs
/pyg_2/bin/python /Users/jeong-yunseong/.vscode/extensions/ms-python.debugpy-2025.18.0-darwin-arm64/bundled/libs/debugpy/adapter/../../debugpy/launcher 52532 -- -m src
.explainers.explainer_main --config configs/ctmp_gin.yaml --explain_method ig 
Seed set to 42
Using device: mps
Train Set Size: 975896
Valid Set Size: 209119
Test Set Size: 209123
CTMPGIN(
  (entity_embedding_layer): EntityEmbeddingBatch3(
    (embedding_layer): Embedding(1215, 32)
  )
  (embed_los): EntityEmbeddingBatch3(
    (embedding_layer): Embedding(38, 8)
  )
  (gin_1): ModuleList(
    (0-1): 2 x GINConv(nn=Sequential(
      (0): Linear(in_features=32, out_features=32, bias=True)
      (1): LayerNorm((32,), eps=1e-05, elementwise_affine=True)
      (2): ReLU()
      (3): Linear(in_features=32, out_features=32, bias=True)
    ))
  )
  (gin_2): ModuleList(
    (0-1): 2 x GINEConv(nn=Sequential(
      (0): Linear(in_features=32, out_features=32, bias=True)
      (1): LayerNorm((32,), eps=1e-05, elementwise_affine=True)
      (2): ReLU()
      (3): Linear(in_features=32, out_features=32, bias=True)
    ))
  )
  (proj_ad): Linear(in_features=32, out_features=32, bias=True)
  (proj_dis): Linear(in_features=32, out_features=32, bias=True)
  (proj_merged): Linear(in_features=32, out_features=32, bias=True)
  (gated_fusion): GatedFusion(
    (score): Sequential(
      (0): Linear(in_features=96, out_features=96, bias=True)
      (1): ReLU()
      (2): Dropout(p=0.3, inplace=False)
      (3): Linear(in_features=96, out_features=3, bias=True)
    )
    (dropout): Dropout(p=0.3, inplace=False)
  )
  (classifier_b): Sequential(
    (0): Linear(in_features=32, out_features=64, bias=True)
    (1): ReLU()
    (2): Dropout(p=0.3, inplace=False)
    (3): Linear(in_features=64, out_features=1, bias=True)
  )
)
학습 가능한 파라미터 개수: 63,416
Buliding Mutual Information based edge index
Loading Cached file...

--------------------Interpreting Models with Integrated Gradients--------------------
Seed set to 0
[Integrated Gradients] Sampling batches: 654/6535 (ratio=0.1, seed=0)
IG (dataset): 100%|██████████████████████████████████████████████████████████████████████████████████████████████████████████████████| 654/654 [06:15<00:00,  1.74it/s]
…
